genetic_nn/best_nn/score_50.pt (torch, 5463 bytes, 6 tensors)

hidden.weight f4 [24, 7]
00000000: bc67 9cbe a028 f5bd 9a65 923f 5dea dc3f
00000010: e465 aabf f4d4 12bd 73c6 1340 3593 07be
00000020: 0ff8 803f 087b 6e3f ea52 b8bf dfed 443f
00000030: e291 0e40 6537 ba3f 2d72 7f3f 8ede 433e
00000040: f3d0 aabe 77cf 5b3e d7dc 03bf 4f7e f3bd
00000050: ccd1 8e3f 7080 1fbd 8750 393f 0a8c 82be
00000060: c18a a7bf 8f69 533f 956a c5bf 6b41 89bf
00000070: 611c 2a3e a0c2 ea3e 1610 3c3f 73bf 553f
00000080: f677 603e ae58 abbf e21d 67bd 0153 92bf
00000090: 5438 1ec0 60ca 433f 70e3 ecbc c45f 90bf
000000a0: 253e 2d3f 97f1 b1be dbf8 e2bf a2aa e73f
000000b0: 01df a9be fe2d 44be 4966 9ebd a13d 83bf
000000c0: 27de d23f b4c2 393f e60e a7bf ee31 dabe
000000d0: 48fa 043c ad70 953f e153 8bbf 5d21 933e
000000e0: 202e 3b3e be22 ab3e f685 6cbf 0267 e33f
000000f0: 7e09 e03c 064f 773e 4079 243e f309 b5bf
00000100: 9722 07c0 0055 293e 3034 88be 795b 01bf
00000110: fc77 0b3f f36b 0a3f 62a5 c7be 620e f5bf
00000120: 3a1a 06be c1ed d53e 2e9d a03e 30c5 793f
00000130: 168a 80be 06a6 98bf c41c 67bf 3e9a 9e3e
00000140: 8b2f 263e 9d75 b43f 6624 293f e063 3bbf
00000150: a182 0340 5850 153f 8793 b53e f844 803f
00000160: 93e7 f73d 6747 0040 89ce 8bbf a319 4a3e
00000170: e8d0 aabe 50d2 7abf b948 af3d 2bfa 813f
00000180: 71cd 28be 8997 f4bf 8c41 89bf 7bbd 34c0
00000190: b1a3 a2be 6fd8 9cbf 99fc cfbf ebea dabd
000001a0: 9d08 1c3e 1aac 76bf a1c3 bf3f 8f38 02c0
000001b0: 3bd8 1bbf 847f d13f f568 9c3f 8760 0e3f
000001c0: 5f3f a4be 54a1 b6bd 1906 88be dcb1 d53f
000001d0: 217e 70bf a661 0940 5c4b 133f e55d 17bf
000001e0: 72ce c6be 01bd 8fbf 5831 f0bf 25f4 acbe
000001f0: d3b1 26bf bb42 67bf 0163 eebe f180 40bf
00000200: 8a0b e3be d361 62bc a969 363f 375e 9bbf
00000210: 60f9 b43e baa8 cbbb 765b d23d cf46 863f
00000220: 351b e93f 275a 88be aecd 1ebe 09d0 e7bf
00000230: 10c0 7e3f 4748 c5be 2543 03bf 5409 a13e
00000240: e951 ddbf 1ed8 b7bf 83a1 0a3e fbda c6bf
00000250: e2be bbbe 2f8a a43f 4ccb aabe b792 383e
00000260: 6d0c f93f c344 b33e adac 1e3f a9ec da3f
00000270: 32a4 833c 56d2 eb3c 0024 3abf 9a9c 5a3f
00000280: a1b8 b3be 665e 45bf 01d8 423f c34a e4bf
00000290: af56 0ac0 2beb 863f d439 babf 2253 bb3f
-0.30547893 -0.11970639 1.1437256 1.7259022 -1.3312345 -0.03584762 2.3089874 -0.13239749
1.0075701 0.9315648 -1.4400303 0.7692546 2.227654 1.4548155 0.99783593 0.19127867
-0.3336254 0.2146586 -0.5150885 -0.11889326 1.1157775 -0.038940847 0.723885 -0.25497466
-1.3089219 0.82582945 -1.5423151 -1.0723089 0.16612388 0.45851612 0.73462045 0.83495253
0.21920761 -1.3386438 -0.056424983 -1.1431581 -2.472188 0.76480675 -0.028917044 -1.1279225
0.6767295 -0.3475463 -1.7732195 1.8098948 -0.3317795 -0.1915817 -0.07734353 -1.0253183
1.6474046 0.7256272 -1.3051422 -0.42616218 0.008116312 1.1675011 -1.0884973 0.28736392
0.18279314 0.33424944 -0.9239191 1.776581 0.027348276 0.24151239 0.16061878 -1.4143661
-2.1114862 0.16536331 -0.26602316 -0.505302 0.54479957 0.5407097 -0.38993365 -1.9145014
-0.13095942 0.41782954 0.3136992 0.9756651 -0.2510535 -1.1925666 -0.9027827 0.30977052
0.16229074 1.4098393 0.66071165 -0.7319927 2.054848 0.5832572 0.35464117 1.0021048
0.12104716 2.004358 -1.0922405 0.19736342 -0.33362508 -0.9797716 0.085587926 1.015447
-0.1648462 -1.9108745 -1.0723128 -2.824065 -0.31765512 -1.225355 -1.6248962 -0.10689338
0.1523766 -0.96356356 1.4981576 -2.034702 -0.60876817 1.636704 1.221953 0.5561604
-0.32079598 -0.0891749 -0.26567152 1.6694903 -0.9394246 2.146585 0.57536864 -0.59127647
-0.3882938 -1.1229554 -1.8765059 -0.33780017 -0.6511509 -0.903362 -0.4655991 -0.7519675
-0.4434474 -0.013817268 0.71254975 -1.2138127 0.35346508 -0.006215182 0.10271351 1.0490359
1.8211428 -0.2663128 -0.15508148 -1.8110362 0.99511814 -0.38531706 -0.5127433 0.3145243
-1.7290622 -1.4362829 0.13538174 -1.5535578 -0.3666907 1.285467 -0.33358228 0.18024717
1.9456917 0.350134 0.6198223 1.7103473 0.016069505 0.02878682 -0.7271118 0.85395205
-0.35101798 -0.77097166 0.76110846 -1.7835315 -2.1615407 1.0540518 -1.4548898 1.4634745

hidden.bias f4 [24]
00000000: 3c50 14bd 1526 bdbc 1524 ed3e 6143 3abf
00000010: 6daa e7be 5d2c 7e3e b27a 0a3e 1833 10bf
00000020: 7eb9 81be cff8 a0be d166 18bf f90e 853f
00000030: 85a1 54be 1009 d43e c212 c2bf ab28 ab3f
00000040: 9621 1e40 9982 0bc0 dedc b03f 48c2 0bc0
00000050: 1084 fe3e 5bd0 80bf cd17 953f 947a 683f
-0.03620933 -0.023089448 0.4631659 -0.7275906 -0.45247212 0.24821611 0.13523367 -0.5632796
-0.25336832 -0.31439826 -0.59531885 1.0395194 -0.2076474 0.41413164 -1.5161974 1.3371786
2.4708 -2.179846 1.3817403 -2.183733 0.4971013 -1.0063585 1.1647888 0.9081204

hidden2.weight f4 [24, 24]
00000000: 1fd1 37bf 4351 04bf 30aa 8f3f 3cc2 de3d
00000010: 5c5d 813f ea64 f2bf 9ec3 76bf aa02 de3f
00000020: a38d edbe 9901 00bf f550 42be 3ed5 453f
00000030: 6b83 2a3f 3e25 6cbe b645 e83c 816d bc3f
00000040: c018 eabe 9d46 3d3d 5b59 0140 cf5e ae3f
00000050: bb37 2b3f ff58 bcbf 192a 7dbf 7993 92bf
00000060: 3853 cb3f f081 4d40 100a 56bd d925 963f
00000070: 010a d13e a59a 613f 5f0d 983e 40e2 acbf
00000080: 0fb8 083f 5ffa 3c3f 26eb a33f 594a 963f
00000090: dc51 7abf 6f23 8cbe 9f56 22bf e758 a43f
000000a0: 7e00 94be c471 f0bf 87ca 6f3f c8c3 953f
000000b0: b65a 47be 3120 81bf 285f 073f ec6b 1140
000000c0: 38e4 833f 7f31 4a3e f0b3 cfbd 6735 38bd
000000d0: acb0 273e 430c 453f d6ce cbbe d3ea 303e
000000e0: f543 74be 1708 25bf 37b7 323f e89c 843e
000000f0: f899 c8bf c272 653f cc1a dcbe 936f e7be
00000100: c667 2d3f 2c11 b03f ea21 f63c ee75 e8be
00000110: d48b f13f 8639 73bf 7bdc 433f 2954 8bbf
00000120: a18d 09c0 96e5 543f 7f05 ac3d 9bfc a9bd
00000130: a961 86bf 8396 0240 110e d3be aa88 44bf
00000140: 93c9 e53e 1237 cdbe 5cc6 b7bf 07af 7fbe
00000150: 05fd 1b3f fbbe 703f 403d 5cbb 10f6 a73d
00000160: 0336 0e40 5025 17bf b514 b9bf d2d0 223e
00000170: 688b 9a3f 1194 d13f 86be 2a3e 0ee1 f03f
00000180: 25fa 483f 9198 143f 2cdf fd3f 022d 263e
00000190: 8c05 6fbe b8a7 8bbf 035d bfbe dc16 3ec0
000001a0: b119 38bf 4fcc e6bd 30a6 c2bf 4d0d b0bf
000001b0: 5441 32bf b5b7 6ebe 619a 58be fd76 babf
000001c0: 8c68 8b3d 88f0 363e d37f e9be 335c 9abf
000001d0: 8e1b 4f3e 33b1 7abe 4a0b 053f 2f95 c33e
000001e0: 93b1 f0be 1fe3 0ec0 8f6c f13e 23d2 27bf
000001f0: e045 f6ba baf9 ac3f 8517 93bf 5491 45bf
00000200: 5bf6 623f f45a 28be 52a2 2b3f 0add b3bf
00000210: a342 27bf bedd dcbf da44 6f3e c57b 233f
00000220: 7664 3940 feee c6bf 3858 e93d 7e4d 953e
00000230: 15b3 033f d464 06bf fa2c 7dbc 0253 9039
00000240: d0e3 50be 26c4 a0bf e036 a0bf b7b5 0b40
00000250: b463 0240 be11 37bf dd0d 0d3f e961 bc3e
00000260: 1324 3b3f d83f e73d 107c 043e 8f2f d5bf
00000270: b164 5fbf 395d 6cbf 4dfe ac3f 4c9f b7be
00000280: 8702 99be 6246 d83e e004 0cbf 7fa7 a63f
00000290: 85cf 71bf 7056 2140 372e 363f a9b9 66be
000002a0: 1fc1 273f 97b7 0840 fe24 d5be ab4a f9bc
000002b0: 7b70 9cbf 1bc7 7f3e 1905 d1be bd24 2740
000002c0: 8ee9 783f 081c 84bd a938 b7be 637f 45bf
000002d0: 3aa7 673f 942d 8e3f 149e c4be 6125 03bf
000002e0: cc9c 9bbf 1354 423d e8f8 fcbf 086a 8ebf
000002f0: c4f3 90bf 7e04 083f 525e 993f de02 cebe
00000300: dd2f 59bf 58bc 0b3f 377e 50be 38ae 293e
00000310: 5304 93bf a7f5 b83f ad4a 0640 7014 9dbf
00000320: 8c34 36bf 2ee9 06c0 6c6b 98bf 8e69 a8bd
00000330: 28c7 8ebd 6c4e 903f 518b f53e 9c8c 013e
00000340: 23b8 e23d 723c c13f 04d2 00be f7b8 103c
00000350: debe 1d3e fed0 343e 0e89 823f 29d7 263f
00000360: 3454 143f 39e5 1240 53ce 163f 47cc 97be
00000370: 7fec 003f 5683 1a40 bcd1 333e a3e8 193f
00000380: 2edc e8bf ce55 0540 711c 87be 1005 173f
00000390: 8b8f 95be 871b 2dbf 1933 14bf 00d0 24bf
000003a0: a9af f03d f481 db3f 53d1 6e3f 84ff 8f3e
000003b0: 2318 fcbf ebb3 8fbf b14d 5abf fc6b d63f
000003c0: d428 5cbe 447e 13c0 ab2d aabe 4723 2dc0
000003d0: c067 23bf bf22 0b40 2323 8b3f 8abf 40bf
000003e0: 8594 033f e8d9 6737 8e8d 0e3f d83e a83f
000003f0: b6d9 6c3f ecf2 97bd 8f27 443f 06c1 fdbd
-0.7180347 -0.51686496 1.1223812 0.10876891 1.0106616 -1.8937047 -0.9639224 1.7344563
-0.46397123 -0.5000244 -0.18976195 0.77278507 0.6660678 -0.23061082 0.028353553 1.4720918
-0.45722008 0.04620992 2.0210788 1.3622683 0.6688191 -1.471466 -0.9889236 -1.1451255
1.5884771 3.2110558 -0.05225569 1.17303 0.40827945 0.88126594 0.296977 -1.3506546
0.5340585 0.73819536 1.2806137 1.1741439 -0.9778116 -0.27370784 -0.63413423 1.2839631
-0.28906626 -1.8784719 0.9366841 1.1700373 -0.19468197 -1.0087949 0.5287957 2.272212
1.0304022 0.19745444 -0.10141742 -0.044972803 0.16375989 0.76971835 -0.3980624 0.17277078
-0.23854049 -0.6446547 0.69810814 0.2590096 -1.5671988 0.8962823 -0.42989194 -0.45202312
0.6773647 1.375524 0.030045468 -0.45402473 1.8870797 -0.9500965 0.765083 -1.0885059
-2.1492693 0.8316282 0.08399486 -0.08300134 -1.0498554 2.0404365 -0.4122167 -0.7677103
0.4488035 -0.40081078 -1.435741 -0.24969111 0.6093295 0.94041413 -0.0033605844 0.082012296
2.2220466 -0.5904131 -1.4459444 0.15899971 1.2073793 1.6373311 0.16674241 1.8818681
0.7850669 0.580453 1.9833732 0.16228107 -0.2334196 -1.0910559 -0.3737565 -2.9701452
-0.719142 -0.112694375 -1.5206966 -1.3754059 -0.6963093 -0.23312266 -0.21152641 -1.4567562
0.0680705 0.17865193 -0.45605335 -1.2059387 0.20225355 -0.24481659 0.5197035 0.38199756
-0.47010478 -2.2326124 0.47153136 -0.6555502 -0.0018789135 1.351371 -1.1491553 -0.7717488
0.8865716 -0.16440946 0.67044556 -1.4051831 -0.65336055 -1.725517 0.23366109 0.6386073
2.8967566 -1.5541685 0.113937795 0.29160684 0.5144513 -0.524976 -0.015452618 0.00027527666
-0.20399404 -1.255986 -1.2516747 2.182966 2.0373354 -0.7151145 0.5509928 0.3679345
0.7310192 0.11291474 0.12937951 -1.6655139 -0.8726302 -0.92329746 1.3515106 -0.3586372
-0.2988474 0.42241198 -0.5469494 1.3019866 -0.94457275 2.5209007 0.7116427 -0.22531761
0.65529054 2.1362054 -0.41629785 -0.030431112 -1.2221826 0.24978296 -0.40824202 2.6116173
0.97231376 -0.06450659 -0.35785416 -0.771475 0.9048954 1.1107659 -0.38401854 -0.5122891
-1.2157226 0.04744346 -1.976346 -1.1126108 -1.1324391 0.53131855 1.1981909 -0.40236562
-0.8483866 0.54584265 -0.20360647 0.16570365 -1.1485695 1.4449967 2.0983078 -1.2271862
-0.7117393 -2.1079822 -1.1907783 -0.08223258 -0.0697158 1.1273932 0.47957852 0.12651294
0.110702775 1.5096571 -0.12580115 0.008833162 0.15404841 0.17657849 1.0198076 0.6517206
0.57940984 2.2952406 0.58908576 -0.2964804 0.50360864 2.414266 0.17560476 0.601206
-1.8192194 2.083362 -0.26388887 0.589921 -0.29211077 -0.6762013 -0.5789047 -0.6437988
0.117522545 1.7149034 0.93288153 0.2812463 -1.9694866 -1.1226782 -0.852748 1.6751704
-0.2149995 -2.3045816 -0.33237967 -2.7052782 -0.63830185 2.1739957 1.0870098 -0.75292265
0.513985 1.3819408e-05 0.55684745 1.3144178 0.925197 -0.074193805 0.7662286 -0.12390332

hidden2.bias f4 [24]
00000000: 6bde 3c3f c096 973d ad2e 113f e89f d2bf
00000010: 7a64 24be 2dc5 a1be 7e7b 24bf 770c 373f
00000020: 068b 0c3f 1190 9bbf 5fdf 7b3f 876c 20bf
00000030: c10e 01c0 c7d2 883f 1607 a83f 9aaa d5bd
00000040: 62ca a4bf 7710 9b3f 3632 1e3f 9fd3 ce3e
00000050: 830f 4b3f c836 bc3e c715 8cbf 2b6c 31be
0.7377688 0.074018 0.56711847 -1.645505 -0.16053954 -0.31595746 -0.64250934 0.71503395
0.5489963 -1.215334 0.9838771 -0.626656 -2.0165255 1.0689324 1.3127162 -0.1043293
-1.2874262 1.21144 0.61795366 0.4039583 0.79320544 0.36760545 -1.0944146 -0.17326419

output.weight f4 [3, 24]
00000000: 0c01 963f 204f d4be e435 733f ac2a 11c0
00000010: 0ce5 f13f e81d d83f ffb3 9c3d 648b 1cbe
00000020: a2c5 d93d 41da 943d 9fda 97be 8053 9b3e
00000030: 7e1b 703f 98bc 2e3f 776c acbe c8da 64bf
00000040: a285 09bf 18dd 85bf 7b7b ad3e f085 a0be
00000050: 038a 33be be8b babe 42fe b4bd e887 92bf
00000060: dec5 d33e 7be8 503f 39d1 aebf 2add 603f
00000070: 1ae3 c63f c63c 2ebf 0b4e 0c3d 3846 543f
00000080: e2ba ce3e 9579 97bf dbd4 40bf 7dc4 483d
00000090: bf64 f6be 40ed a93e 1a0d 33bf c082 3e3f
000000a0: 3e31 38bf 0cd9 393e 507e de3e 010d 103f
000000b0: 3589 ecbe 88f4 5b3f 7c4a 6cbf e9bd 56bf
000000c0: b973 a8be fcc1 02c0 4944 7dbe 10ed 82bf
000000d0: d80c 14bf 41cb 8dbd c060 6c3d 6c96 7bbe
000000e0: 7b16 933e 1870 c93f 4ce2 23be de4b d1bf
000000f0: c243 c23f 7274 293f c026 d23f 4c73 983f
00000100: dd78 aebe 9486 65bf cfb6 163f 46c4 74be
00000110: fbf4 8fbf b651 22bf b77e 203e eea2 253e
1.171907 -0.41466618 0.95004106 -2.2682295 1.8898025 1.6884127 0.07651519 -0.15287548
0.106333986 0.07268191 -0.29658982 0.30337143 0.9379195 0.6825652 -0.33676502 -0.89396334
-0.5371953 -1.0458097 0.3388327 -0.31352186 -0.17533116 -0.3643474 -0.08837558 -1.1447725
0.41361898 0.8160474 -1.36576 0.8783747 1.5538056 -0.6806148 0.034254115 0.82919645
0.40376955 -1.1833979 -0.7532479 0.04901551 -0.48123738 0.3318882 -0.69941866 0.7441826
-0.7195014 0.18149203 0.43455744 0.5626984 -0.4619843 0.8592 -0.92301154 -0.8388353
-0.3290079 -2.0430899 -0.2473308 -1.0228596 -0.578321 -0.06923533 0.057709455 -0.245691
0.2872809 1.5737333 -0.16004294 -1.6351278 1.5176928 0.66193306 1.6418076 1.1910186
-0.34076586 -0.89658475 0.58872694 -0.23902997 -1.1246637 -0.6340593 0.15673338 0.16175434

output.bias f4 [3]
00000000: e022 9a3f 1724 b8be 1896 bebe
1.2041893 -0.35965034 -0.37223887
